Train&Erase_Plate_Face/weight/LPDNet_CCPD_pruned_tao5.onnx (onnx, 799698 bytes, 87 tensors)

output_cov/kernel/read__94 f4 [1, 128, 1, 1]
000000 68 b8 a8 37 22 3e db bd eb b0 0d 36 d2 1d 58 34
       2.0113031e-05 -0.1070521 2.1113617e-06 2.0127416e-07
000010 1b 0b 0b b4 94 ee c8 b8 6c 78 84 b4 3a 95 9c b7
       -1.2949424e-07 -9.581182e-05 -2.4674534e-07 -1.8666138e-05
000020 9c 6a ad b3 3c fa 5c 33 51 f1 9f b6 b3 a1 60 36
       -8.0753324e-08 5.145033e-08 -4.766662e-06 3.3472722e-06
000030 9a 7c 86 34 c9 61 3c b5 2b c9 f5 33 55 2c 3e b4
       2.5050105e-07 -7.0177754e-07 1.1445294e-07 -1.7711257e-07
000040 39 9a c4 b3 50 eb 8a 34 5d af 75 b4 38 9b 31 bf
       -9.155014e-08 2.5875715e-07 -2.28812e-07 -0.6937747
000050 a7 1c c9 b4 1a 05 bb b4 b0 b6 28 37 52 66 24 b3
       -3.7460015e-07 -3.4835176e-07 1.0056116e-05 -3.8277285e-08
000060 e8 0d 76 b3 80 47 44 b4 52 37 9b 33 38 c9 36 36
       -5.7288986e-08 -1.8279934e-07 7.227813e-08 2.7237238e-06
000070 3d 1f ca b3 84 13 1e 34 f1 f6 06 b8 cc 63 7a b4
       -9.41204e-08 1.4721996e-07 -3.217807e-05 -2.331937e-07
000080 b8 8b 1b b4 3a cb 0a b7 07 70 a0 b6 cd 4b a3 34
       -1.448633e-07 -8.272758e-06 -4.7814133e-06 3.0416268e-07
000090 96 7e 48 34 7e 68 ad 3f cf 5d 47 38 ea 94 7c b7
       1.8672503e-07 1.3547513 4.7532663e-05 -1.5055042e-05
0000a0 a9 6a 3c b7 7c b0 2f 33 74 e8 1e 34 2c cb 7d b4
       -1.1230507e-05 4.0905874e-08 1.4799463e-07 -2.3636375e-07
0000b0 61 a7 75 b4 8b 1c 75 b4 78 46 66 36 05 aa 76 b7
       -2.2878295e-07 -2.2827787e-07 3.431369e-06 -1.4702328e-05
0000c0 a3 dd c1 34 4a 50 1b 3d f3 d7 7f 34 84 4b 2a 33
       3.6110313e-07 0.037918366 2.3827288e-07 3.964989e-08
0000d0 e9 64 47 b4 53 fa 0d b8 e5 8b c5 34 58 3d 44 b4
       -1.857003e-07 -3.3850152e-05 3.6795896e-07 -1.8276239e-07
0000e0 d4 7f 3a 33 7c 64 de b6 ab 00 4d 3b 58 77 fb b2
       4.342276e-08 -6.6278135e-06 0.0031280916 -2.9274517e-08
0000f0 5f c1 cb 34 fc 8a 82 34 47 14 c7 b3 2f db 68 34
       3.7952393e-07 2.431551e-07 -9.270348e-08 2.1686422e-07
000100 e8 b6 6a b2 c3 e9 50 39 32 cc 22 b4 d8 42 9d b2
       -1.3662181e-08 0.00019923509 -1.5161712e-07 -1.8307603e-08
000110 9c a6 ae b3 b4 9b 4b bf 3a ee 9a 33 3a 9c 25 b3
       -8.1328125e-08 -0.7953446 7.214517e-08 -3.8559143e-08
000120 a8 fd 39 3b aa b1 d5 33 c2 3c 98 be 48 5a 21 b4
       0.002837995 9.950902e-08 -0.29733855 -1.5027138e-07
000130 27 56 f7 33 4c 96 44 38 f4 dc 2a b3 47 91 8f 34
       1.1517505e-07 4.6870016e-05 -3.9782165e-08 2.674153e-07
000140 78 e2 f8 bd 38 95 16 b2 b4 be 27 b3 b3 ff a8 be
       -0.121525705 -8.7650776e-09 -3.905616e-08 -0.33007583
000150 a4 62 25 b8 aa 8f c9 b4 58 d8 a5 b2 1e bd d2 bf
       -3.943093e-05 -3.7543697e-07 -1.930691e-08 -1.6463964
000160 16 22 2b b8 95 65 c3 b6 99 19 32 b4 3f ae 98 b7
       -4.0801322e-05 -5.8232786e-06 -1.6586854e-07 -1.8200952e-05
000170 01 da 61 b4 13 ea 95 33 36 40 24 33 ca 1a 3a 37
       -2.1034067e-07 6.980931e-08 3.8242625e-08 1.1092701e-05
000180 6f 50 e9 b3 5f 01 33 bf 35 6c c3 b4 fa 7a 26 33
       -1.0864539e-07 -0.6992397 -3.640031e-07 3.8761733e-08
000190 eb b9 7d 34 b2 58 eb bc 6f 30 9a b7 12 73 fa 33
       2.3630098e-07 -0.028728817 -1.8380784e-05 1.1662463e-07
0001a0 7b 76 5b 35 bf 82 19 b7 65 75 80 34 21 94 60 34
       8.175627e-07 -9.149952e-06 2.3927274e-07 2.0915515e-07
0001b0 18 3b a4 b3 e8 28 49 b4 e9 2b c3 b4 5b da 6f b8
       -7.647594e-08 -1.8734465e-07 -3.635353e-07 -5.71854e-05
0001c0 f0 f0 f8 b4 ae 9d 29 b4 40 0d ae b2 25 a2 ab b3
       -4.6368905e-07 -1.5796715e-07 -2.0262291e-08 -7.992302e-08
0001d0 3d 14 57 b7 76 5d b8 b1 28 d4 cc 34 4c bd a1 b7
       -1.2819711e-05 -5.36573e-09 3.8152325e-07 -1.9280844e-05
0001e0 dc 5a 87 b4 b1 fe c3 b4 a1 46 07 39 a0 8e 66 31
       -2.5211818e-07 -3.6506893e-07 0.00012900915 3.3550478e-09
0001f0 16 f5 02 b4 e0 d8 56 37 33 77 97 b7 fd fc 1b b4
       -1.2196355e-07 1.2805889e-05 -1.805611e-05 -1.4527537e-07

output_bbox/kernel/read__92 f4 [4, 128, 1, 1]
000000 7c dc 96 be 7b 6c 2f bc f8 99 ba bb a6 95 10 b4
       -0.2946509 -0.010707016 -0.005694624 -1.3465487e-07
000010 25 de 60 b4 d4 f2 13 3e 1e 3a 37 b4 6f 37 2c 3d
       -2.0942441e-07 0.144481 -1.7064346e-07 0.042045053
000020 c7 b8 61 34 f0 5b 49 34 1f 69 61 3e 24 5b 21 3d
       2.102198e-07 1.875303e-07 0.22012757 0.03939356
000030 c4 54 ae 34 99 e6 0a 37 6e d7 dd b1 f9 6f e5 b2
       3.24717e-07 8.279131e-06 -6.456438e-09 -2.6710028e-08
000040 14 31 0e 34 70 32 8b 32 68 9b 22 b4 e1 5f fd 3c
       1.3242635e-07 1.6204666e-08 -1.5143962e-07 0.030929508
000050 82 8c af b4 9f c6 04 34 8c 46 78 3e ea 9d 24 33
       -3.2698523e-07 1.2365716e-07 0.24245661 3.8327848e-08
000060 54 27 35 b4 07 0d 7d b4 12 fb 40 34 16 c2 d1 36
       -1.6871246e-07 -2.35672e-07 1.7972732e-07 6.25128e-06
000070 b0 59 5e 34 ec 38 c7 33 d4 82 80 bc e0 35 69 31
       2.0707989e-07 9.277014e-08 -0.015687384 3.3936587e-09
000080 01 48 e6 b3 82 57 89 bb 4c 1f 00 3d 1c bc 2e 33
       -1.0723307e-07 -0.00419134 0.031279847 4.0683616e-08
000090 63 96 f3 b3 84 be 5e b9 8b 0b 85 3c d9 04 d1 3b
       -1.13429245e-07 -0.00021242542 0.016240856 0.0063787517
0000a0 33 21 32 3c 8e 41 f5 31 38 5a b4 b2 bd be f3 33
       0.010872173 7.137891e-09 -2.0995785e-08 1.13502644e-07
0000b0 c0 b3 7a b4 84 59 1e b4 ae fb c0 3b 43 5d 92 3e
       -2.3348457e-07 -1.4747462e-07 0.0058893776 0.28586778
0000c0 60 14 aa b2 f0 7c de 3c 12 8e 26 b3 98 ca 24 34
       -1.979987e-08 0.027159184 -3.87791e-08 1.5347393e-07
0000d0 be ae 81 34 0d b3 82 3c ca 2c f2 33 96 f8 e2 b4
       2.4155264e-07 0.015954519 1.127715e-07 -4.227665e-07
0000e0 a6 cd 19 33 bb 38 ab bc 78 6e c8 3c fe 75 97 33
       3.5810125e-08 -0.020901075 0.024466738 7.052948e-08
0000f0 ac fc af 34 fc 3e 1a b3 5f d2 cb 34 34 b8 7c b3
       3.2780133e-07 -3.5913203e-08 3.7964762e-07 -5.8840854e-08
000100 cc 0b 2d b4 50 0d ab 3c 73 3b 69 b4 ea 5c 84 34
       -1.6116172e-07 0.020880371 -2.1721443e-07 2.465452e-07
000110 58 44 1d 34 dc 49 03 ba 46 d5 8e b4 2b d2 b0 32
       1.4646628e-07 -0.00050082593 -2.6604738e-07 2.058467e-08
000120 a2 85 03 3d f0 61 0f b2 97 7c be 3c a1 2b a8 b3
       0.032109864 -8.345964e-09 0.023252768 -7.831046e-08
000130 b4 4f 26 34 9a e6 7a 3e df fa 7f b4 fa 82 a0 b2
       1.548895e-07 0.2450203 -2.3839992e-07 -1.8686013e-08
000140 77 c8 28 3c 78 8c 09 32 f3 db 7f b4 2f 39 ba 3b
       0.010301701 8.006388e-09 -2.3828743e-07 0.0056830863
000150 dd 71 cf 3c ac e2 db bd 37 fe c3 33 20 47 28 bc
       0.025322849 -0.107365936 9.1266365e-08 -0.010270864
000160 d2 60 72 3e 02 ca 7f ba a0 96 26 b4 75 b0 b4 3c
       0.23669747 -0.00097575795 -1.5514752e-07 0.022056798
000170 73 34 c9 b4 94 75 7a b3 25 06 77 b4 61 74 b7 bc
       -3.747733e-07 -5.8314598e-08 -2.3005903e-07 -0.022394361
000180 35 a4 c9 b3 5c da 09 bb 30 b9 26 34 a8 e7 94 b3
       -9.389661e-08 -0.0021034693 1.5527326e-07 -6.933925e-08
000190 9a 75 86 b4 77 a1 a9 bc 57 46 d9 3e 11 9b c3 34
       -2.504501e-07 -0.020706875 0.42436478 3.6434406e-07
0001a0 da 56 cb 3b 86 4f fc 3c 9e c3 80 b4 d9 2f db 33
       0.006205422 0.030799638 -2.3984188e-07 1.02066856e-07
0001b0 b0 a5 72 34 93 5c aa 33 f4 d6 2a 33 b4 f8 56 38
       2.2598283e-07 7.933081e-08 3.9776708e-08 5.12532e-05
0001c0 45 0b ac 33 62 d6 40 b2 38 b3 85 34 48 6f 68 33
       8.011424e-08 -1.1224616e-08 2.490358e-07 5.411792e-08
0001d0 88 95 a2 3e 14 21 7a b4 e0 d1 af 32 d2 11 d4 bb
       0.31754708 -2.3295098e-07 2.0468121e-08 -0.006471851
0001e0 d0 94 91 31 c8 b8 f2 31 3e 9f 00 3f 68 30 22 34
       4.2369734e-09 7.064134e-09 0.50242984 1.5105036e-07
0001f0 58 68 21 34 f2 1b 93 3e fd 96 2f 3c d8 0a b1 b2
       1.5032253e-07 0.28732258 0.010717151 -2.0610443e-08
000200 e9 a7 09 bd a7 2a e6 bd 40 95 bb 3b 71 1a 65 34
       -0.033607397 -0.11238604 0.005724579 2.1336906e-07
000210 95 b8 b1 b3 36 c6 b3 3c 38 47 54 b4 4a be c1 3d
       -8.27578e-08 0.0219451 -1.9769948e-07 0.09460123
000220 ea 10 80 b4 a0 8e 66 31 17 66 20 3d 8b 5b 41 b7
       -2.3854165e-07 3.3550478e-09 0.03915986 -1.152501e-05
000230 4a 0b 85 34 5e 8f 02 b8 0c e5 48 b4 ee 55 36 b4
       2.4781394e-07 -3.1127936e-05 -1.8709778e-07 -1.6981332e-07
000240 2a cd 85 b4 c4 a1 25 b4 0c a2 68 34 a6 6b 14 bc
       -2.4922457e-07 -1.5425672e-07 2.1665636e-07 -0.0090588685
000250 1a d0 b9 b3 36 f1 1b b3 f3 7b 40 36 75 fd c8 34
       -8.652587e-08 -3.630813e-08 2.8682377e-06 3.7437317e-07
000260 84 cf 20 b4 f8 04 98 33 14 5c 86 34 78 b6 b8 bb
       -1.4976655e-07 7.0789554e-08 2.502644e-07 -0.0056369863
000270 04 0a 21 34 3a 0d 41 b4 33 98 3f 3d 44 09 1d 33
       1.4997937e-07 -1.7979337e-07 0.046776008 3.6562838e-08
000280 80 21 cf b3 35 77 47 3e 01 05 8d bc 22 34 5e 34
       -9.645282e-08 0.19479068 -0.0172143 2.0694327e-07
000290 8d e5 dd b3 18 8d 12 3a a1 c9 94 3e db 34 df 3c
       -1.03328695e-07 0.00055904826 0.2906008 0.027246883
0002a0 46 83 e3 3d 63 12 74 33 87 15 1d 34 e5 7c c5 b4
       0.11109023 5.68274e-08 1.4629596e-07 -3.6784982e-07
0002b0 66 7f 5d 34 08 7f 48 34 11 a1 28 bc f8 1d 3b 3d
       2.0628576e-07 1.8672665e-07 -0.0102923075 0.045682877
0002c0 44 c0 02 32 b4 cd df 3c 74 2c 0a 33 17 48 c1 b4
       7.610712e-09 0.027319767 3.217106e-08 -3.6001504e-07
0002d0 50 f3 26 34 5e 5e 21 bb ed 87 63 b4 ec 17 42 34
       1.5548471e-07 -0.0024622898 -2.1190472e-07 1.807636e-07
0002e0 10 be af 34 12 40 5b 39 46 49 0f 3e c2 8b 26 b3
       3.273458e-07 0.00020909336 0.13992795 -3.8776996e-08
0002f0 a0 f3 6d 31 60 4f 21 34 52 8c 5a 34 54 73 1c 34
       3.4626524e-09 1.502317e-07 2.035388e-07 1.4570588e-07
000300 2f 49 13 34 d1 2c 7d 3b 93 1e e2 b3 00 9e 9b ae
       1.3717066e-07 0.003863145 -1.05295065e-07 -7.0766504e-11
000310 c7 6b 1c 33 a0 29 d9 ba 54 83 59 34 9c 57 2a 34
       3.6419603e-08 -0.0016568191 2.0257477e-07 1.5864356e-07
000320 39 ee 74 b9 58 1a 69 32 dc 0a 24 3e 73 1f c9 b4
       -0.00023358398 1.3568375e-08 0.16019768 -3.746205e-07
000330 12 56 81 34 04 3f 0c 3c b4 3e 26 b4 e1 99 a7 34
       2.4090747e-07 0.008559946 -1.5482766e-07 3.1218136e-07
000340 c0 db 88 bd 10 aa b8 33 33 f1 96 b4 d7 2f 21 bb
       -0.06682539 8.599102e-08 -2.8115173e-07 -0.0024595165
000350 b8 b0 24 3c 1a 3a ed bb 63 06 cc 34 15 52 4f 3a
       0.010051899 -0.0072395923 3.8002608e-07 0.00079086545
000360 4d d9 dc 39 fb 98 94 3d 22 0e b6 34 16 43 db 38
       0.00042123572 0.07255741 3.3910425e-07 0.000104552295
000370 04 96 27 33 ab 08 b9 32 65 08 88 b4 b4 4e 80 bd
       3.9019156e-08 2.1540776e-08 -2.5338082e-07 -0.062650114
000380 7b 55 0c 34 5f d5 45 bc 0c 6d 67 b4 95 51 1f b4
       1.3069614e-07 -0.012074797 -2.1553222e-07 -1.4837708e-07
000390 d8 c3 60 33 b9 f0 09 3d ae 0d 3c 3b 1f 80 bc 33
       5.2332183e-08 0.033676837 0.0028694677 8.777737e-08
0003a0 b6 42 2b 3d ea 28 1e 3b 5f c2 cb 34 c1 3a 64 34
       0.041811667 0.0024133273 3.795312e-07 2.1255529e-07
0003b0 a0 43 9a b2 ef 31 f3 33 6e 8a e3 31 ec 49 9d 3d
       -1.7958712e-08 1.1324652e-07 6.622307e-09 0.07680115
0003c0 b0 93 94 b2 7c 21 2b b4 bc 39 7a 34 a0 26 58 b2
       -1.7296628e-08 -1.5937798e-07 2.3304068e-07 -1.2581637e-08
0003d0 68 75 3d 3d 76 c1 1a 33 65 75 80 34 84 a0 3a bc
       0.046254545 3.603187e-08 2.3927274e-07 -0.011390809
0003e0 8b 7c b4 32 ef 28 f3 33 b9 79 c0 3c ae 7b e5 b1
       2.1011394e-08 1.1323015e-07 0.023495542 -6.678838e-09
0003f0 ee 61 d5 31 d8 02 77 3b 87 9e c3 ba 57 32 c3 b3
       6.210249e-09 0.0037690904 -0.0014924564 -9.089552e-08

conv1/kernel/read__8 f4 [16, 3, 7, 7]
000000 0a 11 23 34 c9 6c 59 34 bd e5 94 34 0c 1c 41 34
       1.5186757e-07 2.0249276e-07 2.7734305e-07 1.7984729e-07
000010 9a 10 6d b3 78 d6 f6 33 56 ae 9c 34 08 d2 9c b3
       -5.519596e-08 1.1494279e-07 2.918411e-07 -7.3025205e-08
000020 2e f3 97 b4 a7 f2 c8 34 3c ec 64 b3 7c 47 89 33
       -2.8302878e-07 3.7429456e-07 -5.330024e-08 6.3925626e-08
000030 8e 28 c6 b3 e4 e7 c7 32 98 26 a4 33 7c 41 37 34
       -9.22747e-08 2.32721e-08 7.643865e-08 1.7067026e-07
000040 c8 7a a1 b3 65 57 1f b4 8e 22 78 b3 5c bf 41 b4
       -7.5194805e-08 -1.4839823e-07 -5.7773427e-08 -1.8044142e-07
000050 6e d4 84 b4 d5 5d 03 b4 80 8b 9a b0 1d 93 2b b4
       -2.474148e-07 -1.2234462e-07 -1.1244623e-09 -1.5979136e-07
000060 1e 20 86 b4 5c cb 14 b4 84 11 28 b4 f6 d5 20 33
       -2.4982813e-07 -1.3857556e-07 -1.5652591e-07 3.74475e-08
000070 30 f2 41 b2 ca 38 85 b3 24 e3 3e b3 ae d2 87 b3
       -1.1289146e-08 -6.203625e-08 -4.4444405e-08 -6.32475e-08
000080 00 2e 31 30 cf 2b 42 34 3d 43 5c b4 80 df 51 b4
       6.4457595e-10 1.8083595e-07 -2.0513558e-07 -1.954595e-07
000090 ea 00 56 33 4b ed ae 33 e5 0d 3e b3 6b 5b 4e b4
       4.982659e-08 8.14567e-08 -4.425046e-08 -1.9218503e-07
0000a0 be 7e f6 33 6a 32 8c 33 be d2 b9 33 50 f9 59 b4
       1.1478322e-07 6.528428e-08 8.6530676e-08 -2.0300399e-07
0000b0 4b 4b 16 b4 00 c9 ae b2 e0 d4 5b 32 c9 7a 45 34
       -1.399723e-07 -2.034767e-08 1.279588e-08 1.8391724e-07
0000c0 fe a5 26 b4 62 cb 61 33 10 97 96 32 5d 2f 94 b3
       -1.5520342e-07 5.257187e-08 1.7530994e-08 -6.9004024e-08
0000d0 a4 39 12 b4 02 69 ef b3 e4 c8 2c b4 1a ef 3c 34
       -1.3618279e-07 -1.11484056e-07 -1.6091832e-07 1.7595849e-07
0000e0 06 75 1d b4 20 56 ab 33 8e 2f dd 33 de 56 7f b3
       -1.4664337e-07 7.978474e-08 1.02997646e-07 -5.945082e-08
0000f0 40 53 4a b0 17 be 9c 31 16 79 39 34 a6 6b 3b b4
       -7.360548e-10 4.5618083e-09 1.7273518e-07 -1.7454894e-07
000100 c0 6d 16 30 80 c3 10 33 b6 06 c0 33 ac 40 88 b3
       5.4725646e-10 3.370542e-08 8.9419174e-08 -6.344757e-08
000110 28 a7 b8 34 f8 bc fa b1 a0 1b 7c b4 79 6b a2 33
       3.4394293e-07 -7.297441e-09 -2.3479379e-07 7.563262e-08
000120 f6 b8 e6 33 7a 1b b0 33 b8 3f a8 32 48 4c b0 34
       1.0743854e-07 8.2006366e-08 1.958675e-08 3.2838057e-07
000130 e2 3d 35 b4 06 98 34 b4 26 d8 cf 33 f0 7d 92 32
       -1.6879451e-07 -1.6819112e-07 9.678506e-08 1.7053907e-08
000140 58 c5 62 b2 a4 cc 3c b4 ae 14 d2 33 39 75 82 33
       -1.3199802e-08 -1.7583312e-07 9.782649e-08 6.0749194e-08
000150 61 be fa b3 81 0b 5d b4 88 d6 b4 b3 2c bb 17 b1
       -1.1676162e-07 -2.0586414e-07 -8.420926e-08 -2.2079787e-09
000160 c2 98 9b b4 93 61 a0 b3 38 d1 7b b3 d8 2a a4 b4
       -2.8982146e-07 -7.468329e-08 -5.8630775e-08 -3.0578553e-07
000170 4b 9b d6 b3 bd ad 2a 34 e2 3e 6f b3 5a e1 d0 b3
       -9.993399e-08 1.589569e-07 -5.5703715e-08 -9.726746e-08
000180 b6 3f 37 b4 c0 9a 02 b3 d1 c8 2e b4 8d 04 da 33
       -1.7066381e-07 -3.0408728e-08 -1.627807e-07 1.0152244e-07
000190 cc 5f b1 b3 44 09 93 b3 2b 4f a2 33 5e 45 d5 b2
       -8.25963e-08 -6.846906e-08 7.5581134e-08 -2.4828008e-08
0001a0 da 90 f5 b3 e5 e4 8c b4 b1 bd 35 b4 4c 12 27 b3
       -1.143505e-07 -2.6243575e-07 -1.6925948e-07 -3.889936e-08
0001b0 6a 62 f6 32 5c 17 51 b3 9e 4b c0 b3 9f 8f 9d b3
       2.8682923e-08 -4.868285e-08 -8.9544514e-08 -7.337007e-08
0001c0 a4 31 30 34 41 4d 18 b4 98 1e c2 b3 ec 02 d6 33
       1.6409336e-07 -1.4184208e-07 -9.039394e-08 9.965683e-08
0001d0 00 45 33 b4 b8 83 db 33 8a 33 25 b4 4c e1 61 b3
       -1.6695776e-07 1.0221942e-07 -1.5385572e-07 -5.25918e-08
0001e0 4a 0c 1c 34 f8 47 22 34 a0 f9 77 34 63 5e 09 34
       1.4533103e-07 1.5113608e-07 2.309448e-07 1.2793457e-07
0001f0 98 52 06 33 61 4b 77 b4 58 88 14 33 96 67 73 b4
       3.1274425e-08 -2.303109e-07 3.458294e-08 -2.2668823e-07
000200 d8 8b 89 34 6b 5a 93 b4 6c 8b 4f b4 14 28 3a 34
       2.5619988e-07 -2.7446671e-07 -1.9329099e-07 1.733718e-07
000210 f7 8e 3c 34 07 68 6a b4 7c df fa b2 52 00 7b 34
       1.7560875e-07 -2.1830793e-07 -2.920546e-08 2.3376313e-07
000220 e2 58 8f b3 ce c1 e1 b3 7c 19 29 34 2c a9 8d 33
       -6.675124e-08 -1.0512632e-07 1.5748623e-07 6.596596e-08
000230 9f 1a 3c 33 f2 83 12 34 eb 8b 68 33 15 74 42 b4
       4.3796373e-08 1.3645311e-07 5.4143964e-08 -1.8109888e-07
000240 83 4c 72 b4 c8 82 16 b4 40 dd 8d b3 8d 4e 22 bc
       -2.2565841e-07 -1.4017417e-07 -6.606069e-08 -0.009906423
000250 c3 24 d0 bb cf fe 8e bb 9d d0 d4 ba 02 b7 fd b9
       -0.0063520386 -0.0043638716 -0.0016236488 -0.00048392272
000260 a1 d5 d5 b8 5b 95 94 b8 3d 80 99 bb c8 20 1d bb
       -0.00010196423 -7.0850096e-05 -0.0046844766 -0.0023975838
000270 cd 67 b5 bc 84 d5 26 bb 4f cf 81 b9 e9 7b 63 b8
       -0.022144223 -0.0025456855 -0.00024759254 -5.4236418e-05
000280 ef 1b ad bc b1 f4 e4 37 9e 3b a4 37 43 b0 8f bd
       -0.021131484 2.7293661e-05 1.9578085e-05 -0.07016041
000290 59 ed 82 bc a2 e3 9c bd 72 f0 00 be 26 53 15 be
       -0.015982317 -0.07660605 -0.12591723 -0.145825
0002a0 36 d8 3d 39 74 f7 44 39 14 29 67 bd 87 1f c4 b7
       0.0001810499 0.000187842 -0.05643566 -2.3379702e-05
0002b0 76 84 22 bd 23 2f 80 bd 52 b1 75 bd a1 2a e5 38
       -0.039677106 -0.062589906 -0.05998356 0.00010927511
0002c0 f8 51 cf 38 f9 bb 9a bd 5c a8 e5 b8 d1 7b 66 bc
       9.885797e-05 -0.07555384 -0.0001095093 -0.014067606
0002d0 30 69 a7 bd 5b d3 61 bd e5 62 20 39 77 e5 96 38
       -0.0817436 -0.055133205 0.0001529563 7.1952985e-05
0002e0 6d 99 41 b8 98 31 e9 b8 ac 3a cf b8 38 86 91 bd
       -4.6157675e-05 -0.00011119543 -9.881458e-05 -0.07105678
0002f0 08 ec 3a bd 80 70 9e 39 ad e0 89 39 f2 a7 8d 38
       -0.045635253 0.00030219927 0.00026298073 6.754686e-05
000300 39 de 7f b8 1d bf dd b8 56 83 be 38 71 36 13 b7
       -6.10037e-05 -0.00010573699 9.084369e-05 -8.774558e-06
000310 5f 9c b5 b8 cf 1e ab b8 57 9f ee b8 9c c0 1f b9
       -8.659879e-05 -8.159654e-05 -0.00011378404 -0.00015235174
000320 b4 2e df b8 2a 24 7f bd 9b e5 3b be 6e 96 54 b8
       -0.00010642168 -0.062290348 -0.18349306 -5.0684837e-05
000330 c8 50 ab b8 b6 1b b2 b8 02 3d 17 b9 1d d8 e1 b8
       -8.168962e-05 -8.492863e-05 -0.0001442321 -0.0001076909
000340 2f 7c 19 b8 5c 07 f5 bc fc 83 05 39 54 51 1e 39
       -3.6593698e-05 -0.029910736 0.00012733036 0.00015098351
000350 46 d2 6b 38 47 c4 00 b9 a7 3b 16 b9 5a 9e c6 b7
       5.62242e-05 -0.0001228015 -0.00014327337 -2.3677178e-05
000360 35 45 30 b9 fa de eb 38 03 ad 47 39 a3 5b 1a 39
       -0.0001681045 0.00011247206 0.00019042571 0.00014720722
000370 0e 5f 11 b8 b4 bc a1 b8 26 d6 18 38 81 47 ed b8
       -3.465922e-05 -7.712227e-05 3.6439065e-05 -0.00011314359
000380 58 b7 d5 b8 46 22 df b8 52 17 46 b9 38 d8 85 b9
       -0.00010190782 -0.000106398526 -0.00018891439 -0.00025528832
000390 bb ca 6e b9 cd 44 1e b9 fe c0 3a b9 56 72 3a b9
       -0.00022772972 -0.00015093684 -0.00017810237 -0.00017780936
0003a0 d3 fd 5c b9 d8 23 85 b9 ca bc 9f b9 32 34 a4 b9
       -0.00021075392 -0.00025394442 -0.00030467502 -0.00031319406
0003b0 f8 5f 77 b9 59 71 91 b9 ea d3 d0 bd c8 1c 8d bc
       -0.00023591507 -0.00027741006 -0.101966694 -0.017225638
0003c0 d5 97 83 b9 53 01 a6 b9 66 ff b5 b9 c7 8e 89 b9
       -0.0002509939 -0.00031662974 -0.00034713297 -0.00026237054
0003d0 19 e2 a9 bd 9b 90 07 3a 40 20 cf b8 50 7e 28 b9
       -0.08295078 0.0005171389 -9.876536e-05 -0.00016068784
0003e0 88 c3 7d b9 d3 28 67 b9 c0 5b e4 b8 26 e8 86 b9
       -0.00024200801 -0.00022045085 -0.00010888977 -0.00025731436
0003f0 b4 54 b9 39 09 92 f0 b8 c9 aa 2f b9 34 eb 74 b9
       0.00035349058 -0.00011471293 -0.00016752923 -0.00023357273

bn_conv1/batchnorm/sub__11 f4 [1, 16, 1, 1]
000000 a6 3a 0d 3e fd a7 9a 3f fe 04 3b 3f 18 52 17 bf
       0.13791904 1.2082516 0.7305449 -0.5910964
000010 bd dc da 3f 79 c1 78 40 3d 48 33 40 25 59 e4 bd
       1.7098614 3.8868086 2.801284 -0.111498155
000020 54 69 b0 3f 99 aa e7 bf 70 dc 17 3e aa 29 72 bd
       1.3782144 -1.8098937 0.14830184 -0.059121765
000030 db 89 e3 3e c3 2d 31 bd 32 d4 88 3f 20 cc 1a bd
       0.44441113 -0.043256532 1.0689757 -0.037792325

bn_conv1/batchnorm/mul__10 f4 [1, 16, 1, 1]
000000 16 87 17 3f f2 e6 29 40 bf d6 cb 40 f1 99 a7 41
       0.591905 2.6547208 6.369964 20.950167
000010 3b cf a0 40 74 ee 8c 40 3d b0 82 41 7f b0 4b 41
       5.0252967 4.404108 16.336054 12.73059
000020 74 50 0e 41 bd 19 0c 40 de 9c 1a 3f 63 3f 6e 41
       8.894642 2.189071 0.6039561 14.890475
000030 fe 94 36 3f 04 ff 2a 41 b4 6b 9f 40 54 f9 25 41
       0.71321094 10.68726 4.9818974 10.373371

block_4b_conv_2/kernel/read__88 f4 [128, 24, 3, 3]
000000 0d 83 4e b9 d6 4a 8e b8 08 a3 81 bc 23 be 17 ba
       -0.00019694511 -6.785027e-05 -0.01582481 -0.00057885255
000010 1c 34 b5 b7 87 28 30 37 11 ae e9 b7 19 25 06 b8
       -2.1601147e-05 1.04998535e-05 -2.785682e-05 -3.198264e-05
000020 95 8d 0b b8 1b d2 53 b7 54 93 cc b7 f7 d0 2f b7
       -3.327204e-05 -1.2625499e-05 -2.43873e-05 -1.0479466e-05
000030 b3 ce 68 37 80 37 c6 b7 07 3d 86 b7 fb 2a aa ba
       1.38764035e-05 -2.3629284e-05 -1.6002463e-05 -0.001298278
000040 38 3c f5 b8 94 09 b0 bc 8c b9 7c b3 ee 8b da 31
       -0.00011693727 -0.021488942 -5.8842076e-08 6.360543e-09
000050 ca dd 8e 34 14 59 20 b4 7d 54 d1 33 59 9d d5 33
       2.6610934e-07 -1.4933568e-07 9.747689e-08 9.947207e-08
000060 41 2a cc 34 60 b6 6b b4 32 2b b7 b3 0b e5 c3 b4
       3.8028705e-07 -2.1952428e-07 -8.529459e-08 -3.648823e-07
000070 1c ba 20 34 64 03 59 34 14 09 18 b4 72 2f 0b 33
       1.4968867e-07 2.0210933e-07 -1.4159406e-07 3.240661e-08
000080 cb 61 bb b2 3b 13 ce b3 40 24 6f 31 19 6b c1 34
       -2.1814136e-08 -9.5961205e-08 3.4799683e-09 3.6026975e-07
000090 3d 0c 07 b5 70 ab 1e 34 39 81 31 b4 78 b7 b5 32
       -5.030923e-07 1.4777265e-07 -1.653142e-07 2.1154605e-08
0000a0 9d c0 c3 33 42 54 40 32 ac fa af b4 c0 62 df b3
       9.115431e-08 1.1195029e-08 -3.2778678e-07 -1.0402209e-07
0000b0 ba a9 45 b4 1f d2 7c b4 e0 a7 6b 34 56 0e 1c 33
       -1.8408801e-07 -2.354577e-07 2.1947153e-07 3.633462e-08
0000c0 56 00 98 33 16 43 86 34 06 89 5d 34 70 4e 77 33
       7.078113e-08 2.5008256e-07 2.0632078e-07 5.7580507e-08
0000d0 b3 58 ca 33 0b 41 0c b4 60 70 3e b7 50 61 63 b7
       9.422492e-08 -1.3062179e-07 -1.1351047e-05 -1.3552912e-05
0000e0 d0 59 6d b7 d4 d2 2f b8 66 6d f5 b8 d5 34 c2 b8
       -1.4147212e-05 -4.19196e-05 -0.000117028874 -9.2604816e-05
0000f0 44 bd b9 b7 33 71 fc b7 99 d8 e1 b7 0a 14 f8 3c
       -2.2141852e-05 -3.0093453e-05 -2.6922951e-05 0.030282993
000100 67 e7 7a bb d8 52 05 bc c4 c5 b1 b7 b4 34 bc bb
       -0.00382849 -0.008137427 -2.1192136e-05 -0.0057435874
000110 4a c9 70 bd b0 a4 95 3b a3 39 06 bc 03 c2 3f b8
       -0.058785714 0.0045667514 -0.008192453 -4.5718636e-05
000120 82 ba 0d b8 14 9f 77 b8 a4 e3 91 bc 35 87 d8 b7
       -3.379072e-05 -5.9037542e-05 -0.017808743 -2.5812167e-05
000130 73 78 fd b9 97 62 45 bd 28 19 5b b7 14 1d 19 b8
       -0.00048345662 -0.048189726 -1.3059274e-05 -3.6505124e-05
000140 7f 89 a2 bd 20 cd 55 37 fc 41 86 b8 86 70 c9 b8
       -0.079363815 1.2743549e-05 -6.4019085e-05 -9.605386e-05
000150 08 a6 a0 b9 41 33 d4 b9 0d 0f fc b9 cf 2e 04 b9
       -0.0003064128 -0.00040473978 -0.000480764 -0.00012605939
000160 ff 7d 11 b9 4d 84 e1 ba 08 fb b0 36 9c e7 95 b6
       -0.00013875215 -0.0017205566 5.2744326e-06 -4.467509e-06
000170 3b 24 9b b6 da 6f 41 38 a2 db 98 37 18 54 18 bc
       -4.6235778e-06 4.6118956e-05 1.8222087e-05 -0.009297393
000180 d5 86 69 bb 5b b0 86 bb 3f e1 54 bc 77 ff 04 b5
       -0.0035633345 -0.0041103787 -0.012993156 -4.954558e-07
000190 72 a5 87 ba 1d de 39 b9 e7 60 99 b7 d4 b5 b4 ba
       -0.0010348989 -0.00017725718 -1.8284145e-05 -0.0013787099
0001a0 6c 6a f7 b8 75 ce 2c ba 5b 82 46 bc 92 68 e6 b8
       -0.000117977004 -0.0006592044 -0.01211604 -0.000109867324
0001b0 65 bf 88 3b cb bc 85 39 58 9c 96 37 26 96 32 39
       0.0041732066 0.00025508399 1.7954197e-05 0.00017031337
0001c0 51 3c 26 39 1d 49 1c 37 44 28 bd 38 37 53 26 38
       0.00015853463 9.315348e-06 9.019722e-05 3.9654984e-05
0001d0 7a ec 69 b7 b3 06 13 bb 10 fd 84 b9 11 10 4e b8
       -1.3942941e-05 -0.0022434413 -0.00025365548 -4.912919e-05
0001e0 15 16 19 ba 83 37 98 38 8f 21 2e 36 12 12 16 39
       -0.00058397773 7.258265e-05 2.5947554e-06 0.00014311846
0001f0 28 06 86 39 aa 22 96 38 48 a0 0e b4 d8 7b 12 33
       0.00025563058 7.159014e-05 -1.328309e-07 3.410591e-08
000200 b0 12 06 b2 52 13 5a 34 5f 8b 35 34 0e 06 9b b4
       -7.804076e-09 2.0309861e-07 1.6907642e-07 -2.8875405e-07
000210 2a e5 ca b3 84 8c 29 b3 d7 eb 04 b4 84 61 02 36
       -9.448043e-08 -3.9476177e-08 -1.2379256e-07 1.942827e-06
000220 26 89 14 b8 4f 1b 1b 3d 8e bb 25 b8 8a 17 7f b8
       -3.541368e-05 0.03786784 -3.951374e-05 -6.081866e-05
000230 fd b9 d1 3b cb 64 86 b6 b3 03 45 b8 39 c5 a1 3d
       0.0064003454 -4.005245e-06 -4.6971905e-05 0.07898945
000240 75 b3 72 b8 d5 20 37 b6 cd b1 e3 3b d6 b9 d7 b8
       -5.786443e-05 -2.7288236e-06 0.0069486857 -0.000102866135
000250 0e 0d a2 37 92 a3 8e 3b ed b7 14 b9 f6 3d 97 38
       1.9317984e-05 0.004352995 -0.00014182898 7.211782e-05
000260 17 b6 e1 3c 72 a8 6a b6 27 9e 75 bc 6a 41 97 bc
       0.027552648 -3.4966765e-06 -0.01499132 -0.018463809
000270 a4 d7 96 b7 f8 bc 48 b7 ea 7e 5c b7 e9 4b f8 b9
       -1.7981809e-05 -1.1964927e-05 -1.3142571e-05 -0.00047358804
000280 c2 fd 73 b9 10 3a ae b9 c1 fe 59 34 3a 4c 91 33
       -0.00023268818 -0.00033231126 2.0302379e-07 6.765954e-08
000290 f3 d9 7f 34 78 af b5 32 47 06 c4 33 b8 28 51 b4
       2.3828015e-07 2.1150967e-08 9.128103e-08 -1.9479455e-07
0002a0 b8 bd 85 34 41 9e c3 b4 92 4f 81 b4 16 72 10 b7
       2.491122e-07 -3.6436725e-07 -2.4086017e-07 -8.609632e-06
0002b0 3f d0 8f b7 b1 cb 04 b9 d8 99 fd b5 ee 80 45 b6
       -1.71439e-05 -0.00012664382 -1.8894743e-06 -2.9430335e-06
0002c0 16 79 12 b8 b3 e5 37 b7 ef 9c 3e b8 37 6b 8d b8
       -3.4921883e-05 -1.0961131e-05 -4.5445686e-05 -6.743374e-05
0002d0 8d 91 c6 b3 ac e9 85 34 9a 68 86 34 f8 7e 35 32
       -9.246569e-08 2.49432e-07 2.5035553e-07 1.0564456e-08
0002e0 0b 56 0c b4 81 77 e0 b3 79 f0 64 b4 c4 90 5a 34
       -1.3069818e-07 -1.04525505e-07 -2.1321638e-07 2.0355498e-07
0002f0 71 71 ab 33 a0 d5 b8 b4 3d 48 ee b4 6e a4 c7 33
       7.983443e-08 -3.4428103e-07 -4.4383515e-07 9.296569e-08
000300 30 59 8b 34 2c b3 a2 32 cc d0 c2 33 10 38 a2 31
       2.595566e-07 1.894076e-08 9.071809e-08 4.721194e-09
000310 0e f0 eb b3 36 d9 7e 34 88 13 6c 34 10 6b d3 32
       -1.0986706e-07 2.3734614e-07 2.1986318e-07 2.461232e-08
000320 fe 56 f8 33 46 18 31 33 88 78 b9 b4 0b 2e 03 b4
       1.1564224e-07 4.12331e-08 -3.4546633e-07 -1.2217076e-07
000330 28 37 c5 b3 30 26 ef b2 e7 f2 00 34 df 52 ab b8
       -9.18356e-08 -2.7840628e-08 1.2009296e-07 -8.169351e-05
000340 00 e0 ab b8 d8 85 62 38 58 76 f9 b7 23 66 e3 b7
       -8.195639e-05 5.400725e-05 -2.9738221e-05 -2.710807e-05
000350 08 0d f1 37 46 cd af b7 74 fb 8a b8 23 49 2a 39
       2.8735507e-05 -2.0957214e-05 -6.6271896e-05 0.00016239709
000360 49 7f ed 35 f3 15 ae 35 97 6c 1b 36 7c 42 a3 b4
       1.7694921e-06 1.2970398e-06 2.3160007e-06 -3.040949e-07
000370 70 35 02 33 96 f4 58 36 13 85 cc b5 ae 57 c8 b5
       3.0316585e-08 3.2328876e-06 -1.5237914e-06 -1.4926679e-06
000380 68 21 81 34 5b 8a cd b5 cc 41 05 b6 23 9e 3c b5
       2.405243e-07 -1.5313957e-06 -1.9856843e-06 -7.0265577e-07
000390 51 5a dd b5 ec 2b 11 b6 01 53 e7 b5 40 cc 48 b4
       -1.6492069e-06 -2.163225e-06 -1.7234998e-06 -1.8700757e-07
0003a0 72 6c 9e 34 f0 f1 29 34 88 b3 d0 b2 18 ec c6 32
       2.9508698e-07 1.5827368e-07 -2.4296028e-08 2.3157597e-08
0003b0 c4 1f 26 34 78 59 4c b2 e2 18 82 b4 f0 3a 59 b4
       1.5471511e-07 -1.1894706e-08 -2.4232492e-07 -2.0231141e-07
0003c0 89 73 c4 b3 3f 3f c4 b3 16 ce 8e 34 98 2d 86 34
       -9.147977e-08 -9.1384656e-08 2.6599508e-07 2.499262e-07
0003d0 b1 a7 c8 b4 b4 aa 70 b4 3b dc c4 b4 38 06 27 34
       -3.7374915e-07 -2.2413843e-07 -3.6668084e-07 1.555535e-07
0003e0 1d 3d ca b3 98 25 76 b3 fe ff 24 33 18 ae 20 34
       -9.4174744e-08 -5.731053e-08 3.841705e-08 1.4964496e-07
0003f0 23 3e 0a 34 18 28 86 34 9c 2a 2f b3 70 a9 1e 34
       1.2874857e-07 2.4988617e-07 -4.0784116e-08 1.4776538e-07

block_4b_conv_1/kernel/read__84 f4 [24, 128, 3, 3]
000000 ef 11 0b 39 95 93 72 38 be 7a 86 38 03 07 76 38
       0.00013262754 5.7834743e-05 6.4124804e-05 5.86575e-05
000010 42 d8 84 38 0d 95 9a 38 e4 4c 4d 38 50 05 9e 38
       6.334532e-05 7.371055e-05 4.894742e-05 7.5350166e-05
000020 bc ff a6 38 1d 64 3c b8 4d e8 fa b8 44 42 36 bc
       7.963131e-05 -4.491593e-05 -0.00011964198 -0.011124197
000030 99 9d 45 bc f0 21 d9 bd ac be 87 38 64 50 ed 38
       -0.0120615 -0.10602176 6.472817e-05 0.000113160146
000040 90 9f df 38 1c b3 ce 38 4b 52 42 3b d7 95 3c 3b
       0.000106631895 9.856207e-05 0.0029651101 0.0028775835
000050 34 6a 27 3b 5d 79 02 3b b0 ec 33 39 8c 94 35 39
       0.002554548 0.0019908764 0.00017158943 0.00017316843
000060 fe 3e d9 bb b2 0c 59 bb 7b 03 e0 bc 0e dc eb b1
       -0.0066298237 -0.003311914 -0.02734541 -6.8644175e-09
000070 aa 2d 89 b4 4e 61 fe b1 b1 77 c9 b4 3a e8 9a b3
       -2.5551464e-07 -7.403435e-09 -3.7526254e-07 -7.2134256e-08
000080 40 99 78 b3 d3 27 8f b3 50 14 77 b3 15 09 d3 33
       -5.788138e-08 -6.6662004e-08 -5.7527643e-08 9.827105e-08
000090 34 12 35 b4 0b 50 51 b4 8c f1 b8 33 e5 ae 63 b4
       -1.6863561e-07 -1.9493761e-07 8.612105e-08 -2.1204649e-07
0000a0 5a 8e af b4 e4 bd 83 34 5a 94 94 b3 78 fc b5 32
       -3.2699865e-07 2.4538815e-07 -6.918772e-08 2.1185983e-08
0000b0 41 89 ab b3 26 46 72 bd be 6f 38 38 7a 8c 84 38
       -7.987774e-08 -0.05914893 4.3973087e-05 6.320416e-05
0000c0 6d 5c 81 38 b2 14 d3 b5 0e 90 f9 bc ee a9 07 3c
       6.168415e-05 -1.5726748e-06 -0.030464198 0.0082802605
0000d0 e7 01 06 39 aa b4 c0 38 5f d0 cb b4 7d 5f b0 b3
       0.00012779945 9.188925e-05 -3.7963306e-07 -8.213008e-08
0000e0 84 25 1e b4 90 69 b1 34 70 55 12 b3 b8 80 3f b4
       -1.4728545e-07 3.3045626e-07 -3.407098e-08 -1.7835089e-07
0000f0 fb 9a 7f b4 c9 df 63 34 36 f0 0a b4 6e 56 02 b4
       -2.3805107e-07 2.1222435e-07 -1.293964e-07 -1.2138636e-07
000100 da de 97 34 52 58 42 b4 43 69 c3 b3 f0 61 0f 32
       2.8288088e-07 -1.8099789e-07 -9.099542e-08 8.345964e-09
000110 a6 95 10 34 1b 7c 6a b3 52 64 06 35 6c 82 22 b4
       1.3465487e-07 -5.4595244e-08 5.0064875e-07 -1.5134873e-07
000120 e1 6e 47 34 b0 e2 f8 34 22 df 97 b4 38 33 2a b4
       1.8573657e-07 4.6358537e-07 -2.8288292e-07 -1.5851117e-07
000130 1c c7 6b 33 b9 94 c3 33 0d 98 f9 b4 f4 ce b3 34
       5.489629e-08 9.1074476e-08 -4.6490496e-07 3.3491926e-07
000140 bc 8f 5d 33 c4 54 1b 34 75 a2 65 b4 88 73 1e b4
       5.1586298e-08 1.4466337e-07 -2.1386388e-07 -1.4756927e-07
000150 78 bc c2 b3 6e 53 e4 31 83 3e c3 33 cb c6 b2 32
       -9.068111e-08 6.645158e-09 9.091766e-08 2.0812328e-08
000160 32 30 3e 32 ec 48 00 b4 38 0a 27 34 69 0c 4a 34
       1.1070414e-08 -1.1947458e-07 1.5556805e-07 1.8817231e-07
000170 48 8a 21 b4 0b 69 c8 b2 74 64 22 b4 b8 72 b2 32
       -1.50446e-07 -2.3330832e-08 -1.512397e-07 2.0774095e-08
000180 3a 2a 99 33 55 9e 64 b4 fb cf 83 33 a2 ab c1 33
       7.132299e-08 -2.1291756e-07 6.137994e-08 9.018483e-08
000190 88 e7 cf b2 79 ad c3 33 c4 f5 7c 34 78 b3 a0 34
       -2.420326e-08 9.1119496e-08 2.3558738e-07 2.9932903e-07
0001a0 8c 3e 24 34 cb b6 b2 b2 19 75 60 b4 6d 29 ac 33
       1.5296445e-07 -2.0805052e-08 -2.0904226e-07 8.0169094e-08
0001b0 94 0c 25 34 38 b5 85 b4 8c 5a 24 34 80 2c 9a b2
       1.5371398e-07 -2.4905034e-07 1.5306631e-07 -1.7948196e-08
0001c0 9a 7e 86 b4 c2 34 46 32 70 cf 1e 34 42 a9 47 b2
       -2.505156e-07 1.1537113e-08 1.4790362e-07 -1.1621809e-08
0001d0 63 56 cb 34 e8 f4 7a ba 24 98 08 b8 49 ee 1c 37
       3.787455e-07 -0.0009573237 -3.256662e-05 9.353805e-06
0001e0 ca 47 df b6 ea 34 cc b7 8e e3 f9 b7 36 16 07 b8
       -6.6542752e-06 -2.4343335e-05 -2.9789077e-05 -3.2207194e-05
0001f0 67 8c a1 b7 6a 4f 11 b8 9a 21 98 b4 94 b8 b0 34
       -1.9258076e-05 -3.4644654e-05 -2.8336655e-07 3.2916853e-07
000200 70 11 89 32 6e f6 d4 31 1a 71 86 34 2e e3 de 31
       1.5956829e-08 6.198028e-09 2.5041737e-07 6.4868777e-09
000210 b6 99 24 b3 90 89 76 b3 e7 21 c3 b4 cd b7 bc b2
       -3.8324025e-08 -5.740145e-08 -3.6346248e-07 -2.1969663e-08
000220 e0 80 bd b4 da 51 6c 33 e0 0e 12 b4 c2 75 01 33
       -3.5297762e-07 5.5022475e-08 -1.3602721e-07 3.0142253e-08
000230 e6 a7 8a b4 a8 03 b0 b2 a8 a9 6c 32 90 a4 dd b2
       -2.5826665e-07 -2.049076e-08 1.3775583e-08 -2.580262e-08
000240 6b 2b ca b2 0e 6e e8 b1 87 45 2a 34 2d ad c3 33
       -2.353564e-08 -6.7646004e-09 1.5857778e-07 9.1118956e-08
000250 7f 05 9b b3 ae 64 d6 31 a4 8f 0e b3 e4 7c 85 34
       -7.21875e-08 6.2396657e-09 -3.3192592e-08 2.486405e-07
000260 a0 d7 a5 32 c8 22 7b b3 5d 86 0b 34 50 f6 26 b4
       1.9306583e-08 -5.8472125e-08 1.2994265e-07 -1.5549563e-07
000270 6a bf 02 34 f8 b2 a6 b2 a6 a8 23 33 85 9b 0b 34
       1.217683e-07 -1.9406329e-08 3.810478e-08 1.3001961e-07
000280 b4 c5 31 33 50 91 1c 34 4a 62 0f b4 c0 5c 90 31
       4.1390834e-08 1.4581497e-07 -1.335367e-07 4.201496e-09
000290 b9 8f 60 34 92 7f a6 32 c4 21 26 b4 ed 4b ce b3
       2.0913912e-07 1.9382956e-08 -1.5472239e-07 -9.606433e-08
0002a0 bc 51 ae 33 9a 88 12 33 5c 26 1d 34 52 d4 b9 33
       8.117374e-08 3.4117512e-08 1.463572e-07 8.653355e-08
0002b0 da 6d 48 b3 1e 47 e2 b4 88 2c 1e b4 0d b0 0d b4
       -4.6666038e-08 -4.2147525e-07 -1.4731097e-07 -1.3195695e-07
0002c0 88 70 1e 34 c8 5b 68 34 6d 68 41 33 1c c5 2f 33
       1.4755835e-07 2.1640074e-07 4.503129e-08 4.0924633e-08
0002d0 b5 55 12 b4 34 e0 71 34 da ac 59 34 03 51 ac 33
       -1.362849e-07 2.2526439e-07 2.0272583e-07 8.02411e-08
0002e0 5c 8e 1d 34 d5 52 3b b4 b0 1a 72 34 a6 40 c8 b3
       1.4673554e-07 -1.7445866e-07 2.2547715e-07 -9.324985e-08
0002f0 86 0c 18 33 33 4f c3 b4 da d8 84 b4 24 5d 2a 34
       3.5401648e-08 -3.6379205e-07 -2.4744696e-07 1.5866368e-07
000300 af 28 75 34 fe 69 97 b3 38 94 85 34 01 28 c4 b4
       2.2832204e-07 -7.050765e-08 2.4881024e-07 -3.6536952e-07
000310 75 5f f3 b3 4c d7 21 34 95 51 1f 34 48 4d 21 34
       -1.1332933e-07 1.5072618e-07 1.4837708e-07 1.5022408e-07
000320 ec 1e 80 34 5c 21 1d 34 52 79 83 34 76 c5 10 33
       2.3864357e-07 1.46339e-07 2.4488924e-07 3.3707202e-08
000330 7d 17 10 34 f7 19 c4 b3 e9 8f c5 b4 88 34 1e b4
       1.341959e-07 -9.131684e-08 -3.6798818e-07 -1.4734007e-07
000340 5f c6 cb 34 68 e7 1f 34 b2 b5 88 34 bb 61 6d 33
       3.795603e-07 1.4892214e-07 2.5464175e-07 5.5269748e-08
000350 a6 78 1a 33 12 6d 3b b2 0e 04 ff 31 01 ca 61 b4
       3.596565e-08 -1.0909632e-08 7.4219377e-09 -2.1028247e-07
000360 f6 06 1f b3 0e 1a f5 33 2e f6 b5 34 70 c2 79 b3
       -3.7026403e-08 1.1413441e-07 3.3892996e-07 -5.815167e-08
000370 1a 37 04 b3 2b bf aa 33 ea 43 af 33 43 34 c4 b3
       -3.078376e-08 7.951015e-08 8.161426e-08 -9.1364676e-08
000380 8a af e5 b3 60 ca cd 33 b0 d3 93 32 b1 58 c9 b4
       -1.0695574e-07 9.582868e-08 1.7209317e-08 -3.75037e-07
000390 9d b1 c3 33 96 80 be b3 de ca c8 33 9d ae c3 33
       9.112703e-08 -8.870954e-08 9.350127e-08 9.112157e-08
0003a0 cc 6b 7a b4 e8 1e 62 33 38 09 27 b4 23 a1 f2 33
       -2.332228e-07 5.2647835e-08 -1.5556441e-07 1.1298314e-07
0003b0 48 3d 21 b4 84 f0 31 b3 5f ce cb b4 a9 54 f3 b3
       -1.5016587e-07 -4.142977e-08 -3.796185e-07 -1.1330969e-07
0003c0 f0 b5 99 b0 5a 0f 4e b4 fc 58 aa 32 01 c9 d4 b7
       -1.1183925e-09 -1.919083e-07 1.983107e-08 -2.536597e-05
0003d0 8f 91 b3 ba 8a ec a2 bb e0 4c 4d 37 99 b8 bd b7
       -0.0013699996 -0.0049720453 1.2236851e-05 -2.2616516e-05
0003e0 62 a1 ed b7 80 f4 2f 3c 4d 40 2f 38 78 09 39 b7
       -2.8327751e-05 0.010739446 4.1783136e-05 -1.1029064e-05
0003f0 44 0d 36 b4 48 68 71 b4 c1 38 de b2 e2 d4 83 b4
       -1.6954897e-07 -2.2482811e-07 -2.587001e-08 -2.4555544e-07

block_4b_bn_2/batchnorm/sub__91 f4 [1, 128, 1, 1]
000000 c0 13 1d 3d 41 04 6f ba 60 5e 3c c0 12 43 a9 be
       0.038348913 -0.00091177603 -2.9432602 -0.33058983
000010 76 d6 37 be d9 82 85 b8 5c 5a b0 be 3e ca 57 3e
       -0.17952904 -6.3663065e-05 -0.3444394 0.21073243
000020 ec c4 4d be 04 c7 08 be 2c ef cc 3f 9d 6e 86 3e
       -0.20094651 -0.13357168 1.601049 0.26256266
000030 d0 b3 23 be ab 85 14 c0 15 c8 2b bd 7d fb 6f bd
       -0.15986562 -2.3206584 -0.04193886 -0.058589447
000040 81 e5 4e be b5 b6 76 bd 9a 24 88 be 8a 21 2f 3f
       -0.20204736 -0.060232837 -0.26590425 0.6841055
000050 fd 56 00 be f9 fc 6a bf f0 cf 8a be 36 fa 8d bd
       -0.12533183 -0.91792256 -0.2711177 -0.069324896
000060 29 12 5e be f0 ad 43 be dc 85 90 bd 4f 0a 84 c0
       -0.21686615 -0.1910932 -0.07056782 -4.1262584
000070 48 a5 be bd 7b 7f b8 bd 57 f4 df bf 2f b2 2a bd
       -0.09308869 -0.0900869 -1.7496442 -0.041673835
000080 71 6c f0 bd 64 7d 52 c0 4c d1 09 be 97 69 0c bd
       -0.117394336 -3.2889032 -0.13458747 -0.034280386
000090 19 d1 c3 bd 96 b5 fc bf 00 eb aa 3d a4 65 a3 c0
       -0.095613666 -1.9742916 0.08345604 -5.1061573
0000a0 c0 49 3b bf 6b b9 c8 bd 3d b0 37 bd c1 1f 93 bd
       -0.7315941 -0.09800991 -0.04484581 -0.07183791
0000b0 e6 89 33 be 49 30 11 be b5 90 ce be 28 45 86 3f
       -0.17533073 -0.14178576 -0.40344778 1.0489855
0000c0 ca db 13 be 14 c2 e9 3e 76 4a fe bd 89 21 9f bd
       -0.14439312 0.45655882 -0.12416546 -0.07770068
0000d0 62 c3 90 bd c6 79 47 c0 1f 5a 05 be db 78 7a bd
       -0.07068516 -3.1168075 -0.1302266 -0.061150413
0000e0 f0 c3 7d be 15 a9 56 be 20 18 99 b8 c9 d6 2d bd
       -0.24781775 -0.20962937 -7.300102e-05 -0.042441163
0000f0 af b1 3e be a6 9e ab bd 1b 14 b6 bd 15 01 77 bd
       -0.18622468 -0.08379869 -0.088905536 -0.060303766
000100 63 01 a2 bc e9 ee 38 3f 02 ab 11 bd e8 30 2c be
       -0.019776052 0.7223955 -0.035563476 -0.16815531
000110 e3 2f 75 be 17 ad 99 41 ed 2b 14 be 32 e9 3d be
       -0.23944049 19.209517 -0.14469881 -0.18545988
000120 6d 3a ba 3e c4 44 5f be 82 17 3a 3f ef a8 4a bd
       0.363727 -0.21803576 0.7269212 -0.049477514
000130 cc 75 f8 bd 49 8a 93 be 55 e5 65 be cb 4e 8a be
       -0.12131843 -0.2881644 -0.22450764 -0.2701324
000140 c0 70 32 3c 76 56 83 bb fd df 2b be 30 53 38 c0
       0.0108911395 -0.0040081097 -0.16784663 -2.8800774
000150 c5 9b 28 40 cc 75 d0 b9 9d c3 fd bd c8 2c 28 41
       2.6345074 -0.00039760617 -0.12390826 10.510933
000160 38 1d c2 3e e2 8b 80 be 5c f7 2e bd f8 30 87 3f
       0.37912917 -0.25106722 -0.04271637 1.0561819
000170 62 d3 70 be 63 2e 41 be b0 13 23 be 3e e9 9c 3a
       -0.23518136 -0.18865351 -0.15925479 0.0011971367
000180 66 3e cd bd 80 e8 0a be dd b4 45 bd 62 aa 53 be
       -0.10021667 -0.13565254 -0.048268188 -0.20670465
000190 00 96 73 bd 74 84 13 be 12 9a ca be 23 e9 14 bd
       -0.059469223 -0.14405996 -0.3957067 -0.03635515
0001a0 1f cd b0 bd 98 23 ae bd f5 3e d7 bd 84 61 67 be
       -0.08632874 -0.08502883 -0.10510055 -0.22595793
0001b0 0a d9 a4 bd 70 a8 58 bd c8 e6 9e bd f2 50 a9 bf
       -0.080492094 -0.05289501 -0.07758862 -1.3227828
0001c0 3a 1d 10 bd 6c 4d ed bd ca b4 f5 bd 24 f1 81 be
       -0.035184123 -0.11587033 -0.119973734 -0.25379288
0001d0 a4 8b 04 3f 04 bf 45 bd 32 d7 e1 be 8f 0d b5 bf
       0.51775575 -0.04827787 -0.44109493 -1.4144763
0001e0 ae 40 58 be 7e c7 8a be ac 72 3f 3f dc c4 9a bd
       -0.21118423 -0.27105325 0.7478435 -0.07557079
0001f0 5b 31 5f be 80 83 66 3c 69 02 ba 3e ac fb 29 be
       -0.21796171 0.014069438 0.36329964 -0.16599911

block_4b_bn_2/batchnorm/mul__90 f4 [1, 128, 1, 1]
000000 c2 9b f5 3f ac f5 18 3d 75 d5 17 41 56 c0 45 42
       1.9188159 0.037343666 9.489614 49.437828
000010 e5 5f 49 42 41 be 29 3c ea 2d 3a 42 92 e8 5c 3f
       50.343647 0.0103603015 46.544838 0.86292374
000020 f7 88 4c 42 a6 72 30 42 0d 65 20 3f 7f 6e 53 bc
       51.133755 44.11196 0.6265419 -0.012904762
000030 41 ff 1d 42 26 56 a8 41 a6 ca 02 42 d9 19 27 41
       39.49927 21.042065 32.6979 10.44381
000040 a8 f9 0b 42 2c f9 44 42 18 f1 2c 42 c9 e7 8a 41
       34.993805 49.243332 43.235443 17.363176
000050 c2 1d 3f 42 73 b5 50 42 bf 55 07 40 82 cd 34 42
       47.77906 52.177197 2.1146085 45.20069
000060 6c 3c 29 42 26 ef 2d 42 79 3c 3a 42 72 f8 ea 41
       42.309006 43.483543 46.559055 29.371311
000070 79 99 31 42 ad 5e 3e 42 ea 3f 01 41 f1 3c 45 42
       44.399876 47.592457 8.078104 49.309513
000080 ac f9 33 42 25 0d 6b 41 6a 91 1b 3c da c5 3c 42
       44.99382 14.690709 0.009495119 47.193214
000090 62 f2 2b 42 e5 4e 16 42 b9 1c 6a 3f 76 5b 06 42
       42.986702 37.577045 0.9145008 33.589317
0000a0 57 32 10 41 ae 6c 35 42 ad 24 41 42 cd da 3b 42
       9.01229 45.356133 48.285816 46.963673
0000b0 3c ce 42 42 3a 98 2e 42 75 3c d3 be 9b 78 17 3f
       48.7014 43.64866 -0.41257063 0.59168404
0000c0 1b f4 23 42 5c 5c 07 3f 3e 40 49 42 e1 3b 3d 42
       40.988384 0.52875304 50.312737 47.308475
0000d0 cf af 24 42 c2 41 5e 41 0f f3 3e 42 be bd 48 42
       41.171688 13.891054 47.737362 50.185295
0000e0 07 97 19 42 5d 13 01 41 04 df 43 3b 54 9a 2d 42
       38.397488 8.067227 0.0029887566 43.40071
0000f0 87 99 33 42 dc af 3d 42 cb 8a 49 42 f6 7f 3f 42
       44.89993 47.421738 50.38554 47.87496
000100 97 43 b9 41 0d 36 61 40 70 6b 7f 41 36 84 40 42
       23.158003 3.518924 15.96373 48.129112
000110 51 13 3f 42 71 12 49 43 96 85 4b 42 ce ba 29 42
       47.768864 201.07204 50.880455 42.432426
000120 d8 51 57 ba b7 25 28 42 a4 ee f6 3f 96 cb 44 42
       -0.0008213795 42.03683 1.9291577 49.198814
000130 27 99 42 42 06 da 60 40 91 80 29 42 2a 56 54 42
       48.649563 3.513307 42.375553 53.084145
000140 3c c7 2d 40 1c 0b 87 41 2b 68 45 42 1f 21 d0 42
       2.7152853 16.880424 49.351727 104.06469
000150 8f a7 64 40 a6 85 60 bd b3 18 38 42 ec 0a 54 42
       3.572727 -0.054814957 46.02412 53.010666
000160 ae 86 3f 3f 53 b0 f7 40 2c 36 47 42 10 a0 db 3f
       0.7481488 7.740274 49.802902 1.7158222
000170 5e d8 25 42 55 e4 2d 42 21 e2 2f 42 0b 76 5e bc
       41.461296 43.47298 43.97083 -0.013577948
000180 71 71 32 42 cc bb a5 41 0b fa 25 42 95 08 22 42
       44.610783 20.716698 41.494183 40.50838
000190 83 55 4f 42 5f 7b 31 bb ab 1e 6c 3f fd 8d 30 42
       51.833508 -0.0027081592 0.92234296 44.13866
0001a0 21 23 7c 3d 99 d5 59 3f a6 04 35 42 dd b9 32 42
       0.06155694 0.8509155 45.25454 44.681507
0001b0 a2 f6 38 42 1f 63 38 42 fa cc 3d 42 b7 c4 e3 40
       46.240852 46.096798 47.450172 7.117763
0001c0 28 c4 41 42 97 3b 4d 42 c1 cd 27 42 44 e0 2a 42
       48.44156 51.308193 41.95093 42.71901
0001d0 f6 3b 13 3f 21 d7 35 42 9b 43 59 42 0b 50 f1 41
       0.5751337 45.460087 54.31602 30.164083
0001e0 00 5c 2c 42 f0 98 28 42 ca 28 c1 3a fc 79 3d 42
       43.089844 42.149353 0.0014736888 47.369125
0001f0 de f1 3e 42 75 13 94 40 7e 67 d7 3f 4f b9 30 42
       47.7362 4.627375 1.6828458 44.180965

block_4b_bn_1/batchnorm/sub__87 f4 [1, 24, 1, 1]
000000 e7 50 79 3f 27 e5 79 3f 8a 59 02 bf d3 e1 f6 be
       0.9738907 0.97615284 -0.50917876 -0.48219165
000010 43 08 04 bf e0 43 e5 be ba df 21 bf 7a cc 0c be
       -0.51575106 -0.44778347 -0.63232005 -0.13749877
000020 a2 31 7b 3f fc cf b8 3f 0e 0f 5c be f4 6e f4 bd
       0.9812261 1.4438472 -0.21490118 -0.11935225
000030 fa 53 f7 3e f0 11 a6 be 28 e3 5d bf 1d b1 1e 3f
       0.48306257 -0.3243556 -0.8667474 0.61989003
000040 3a de 3d 3f ec e9 b5 bf 4e 89 08 bf 0b 78 66 be
       0.74167216 -1.4212012 -0.5333451 -0.2250673
000050 ba fc f3 be 6f f9 e3 be 25 1e c3 be 68 dd 9f bc
       -0.47653753 -0.4452624 -0.38108936 -0.019514754

block_4b_bn_1/batchnorm/mul__86 f4 [1, 24, 1, 1]
000000 26 b9 c2 3e 83 71 e6 3e 14 ac c2 41 10 78 d6 41
       0.38031882 0.45008478 24.334023 26.808624
000010 c1 cf d4 41 b3 a2 c3 41 43 11 17 40 47 3f 53 40
       26.601442 24.454443 2.3604286 3.3007371
000020 93 3b 9b 3e 7a 89 d2 3e ca a4 39 3f 34 e4 0b 40
       0.3031889 0.4112051 0.72517073 2.1858034
000030 f9 2a 21 3f 6c 78 15 40 dc ac 6f 41 ea 42 66 3f
       0.62956196 2.335475 14.979702 0.8994585
000040 15 2f 07 3f cc 91 1e 40 45 a3 db 41 d8 8b 86 40
       0.52806216 2.4776487 27.454721 4.204571
000050 5b 9c ca 41 99 31 96 41 e8 a0 b2 41 38 7a d7 3f
       25.326345 18.774218 22.328568 1.6834173
